191115_144337_Fri: Initialized faster rcnn in FasterRCNNTrain	[INFO]
191115_144337_Fri: FasterRCNNModule(
  (roi_pool): ROIPooling(
    (adaptive_pool): AdaptiveMaxPool2d(output_size=(7, 7))
  )
  (backbone): VGGBackbone(
    (backbone): Sequential(
      (0): Conv2d(3, 64, kernel_size=(3, 3), stride=(1, 1), padding=(1, 1))
      (1): ReLU(inplace=True)
      (2): Conv2d(64, 64, kernel_size=(3, 3), stride=(1, 1), padding=(1, 1))
      (3): ReLU(inplace=True)
      (4): MaxPool2d(kernel_size=2, stride=2, padding=0, dilation=1, ceil_mode=False)
      (5): Conv2d(64, 128, kernel_size=(3, 3), stride=(1, 1), padding=(1, 1))
      (6): ReLU(inplace=True)
      (7): Conv2d(128, 128, kernel_size=(3, 3), stride=(1, 1), padding=(1, 1))
      (8): ReLU(inplace=True)
      (9): MaxPool2d(kernel_size=2, stride=2, padding=0, dilation=1, ceil_mode=False)
      (10): Conv2d(128, 256, kernel_size=(3, 3), stride=(1, 1), padding=(1, 1))
      (11): ReLU(inplace=True)
      (12): Conv2d(256, 256, kernel_size=(3, 3), stride=(1, 1), padding=(1, 1))
      (13): ReLU(inplace=True)
      (14): Conv2d(256, 256, kernel_size=(3, 3), stride=(1, 1), padding=(1, 1))
      (15): ReLU(inplace=True)
      (16): MaxPool2d(kernel_size=2, stride=2, padding=0, dilation=1, ceil_mode=False)
      (17): Conv2d(256, 512, kernel_size=(3, 3), stride=(1, 1), padding=(1, 1))
      (18): ReLU(inplace=True)
      (19): Conv2d(512, 512, kernel_size=(3, 3), stride=(1, 1), padding=(1, 1))
      (20): ReLU(inplace=True)
      (21): Conv2d(512, 512, kernel_size=(3, 3), stride=(1, 1), padding=(1, 1))
      (22): ReLU(inplace=True)
      (23): MaxPool2d(kernel_size=2, stride=2, padding=0, dilation=1, ceil_mode=False)
      (24): Conv2d(512, 512, kernel_size=(3, 3), stride=(1, 1), padding=(1, 1))
      (25): ReLU(inplace=True)
      (26): Conv2d(512, 512, kernel_size=(3, 3), stride=(1, 1), padding=(1, 1))
      (27): ReLU(inplace=True)
      (28): Conv2d(512, 512, kernel_size=(3, 3), stride=(1, 1), padding=(1, 1))
      (29): ReLU(inplace=True)
    )
  )
  (rpn): RPN(
    (conv): Conv2d(512, 512, kernel_size=(3, 3), stride=(1, 1), padding=(1, 1))
    (classifier): Conv2d(512, 18, kernel_size=(1, 1), stride=(1, 1))
    (regressor): Conv2d(512, 36, kernel_size=(1, 1), stride=(1, 1))
  )
  (rcnn): RCNN(
    (fc1): Linear(in_features=25088, out_features=4096, bias=True)
    (fc2): Linear(in_features=4096, out_features=4096, bias=True)
    (classifier): Linear(in_features=4096, out_features=21, bias=True)
    (regressor): Linear(in_features=4096, out_features=84, bias=True)
  )
)	[INFO]
191115_144459_Fri: Initialized faster rcnn in FasterRCNNTrain	[INFO]
191115_144459_Fri: FasterRCNNModule(
  (roi_pool): ROIPooling(
    (adaptive_pool): AdaptiveMaxPool2d(output_size=(7, 7))
  )
  (backbone): VGGBackbone(
    (backbone): Sequential(
      (0): Conv2d(3, 64, kernel_size=(3, 3), stride=(1, 1), padding=(1, 1))
      (1): ReLU(inplace=True)
      (2): Conv2d(64, 64, kernel_size=(3, 3), stride=(1, 1), padding=(1, 1))
      (3): ReLU(inplace=True)
      (4): MaxPool2d(kernel_size=2, stride=2, padding=0, dilation=1, ceil_mode=False)
      (5): Conv2d(64, 128, kernel_size=(3, 3), stride=(1, 1), padding=(1, 1))
      (6): ReLU(inplace=True)
      (7): Conv2d(128, 128, kernel_size=(3, 3), stride=(1, 1), padding=(1, 1))
      (8): ReLU(inplace=True)
      (9): MaxPool2d(kernel_size=2, stride=2, padding=0, dilation=1, ceil_mode=False)
      (10): Conv2d(128, 256, kernel_size=(3, 3), stride=(1, 1), padding=(1, 1))
      (11): ReLU(inplace=True)
      (12): Conv2d(256, 256, kernel_size=(3, 3), stride=(1, 1), padding=(1, 1))
      (13): ReLU(inplace=True)
      (14): Conv2d(256, 256, kernel_size=(3, 3), stride=(1, 1), padding=(1, 1))
      (15): ReLU(inplace=True)
      (16): MaxPool2d(kernel_size=2, stride=2, padding=0, dilation=1, ceil_mode=False)
      (17): Conv2d(256, 512, kernel_size=(3, 3), stride=(1, 1), padding=(1, 1))
      (18): ReLU(inplace=True)
      (19): Conv2d(512, 512, kernel_size=(3, 3), stride=(1, 1), padding=(1, 1))
      (20): ReLU(inplace=True)
      (21): Conv2d(512, 512, kernel_size=(3, 3), stride=(1, 1), padding=(1, 1))
      (22): ReLU(inplace=True)
      (23): MaxPool2d(kernel_size=2, stride=2, padding=0, dilation=1, ceil_mode=False)
      (24): Conv2d(512, 512, kernel_size=(3, 3), stride=(1, 1), padding=(1, 1))
      (25): ReLU(inplace=True)
      (26): Conv2d(512, 512, kernel_size=(3, 3), stride=(1, 1), padding=(1, 1))
      (27): ReLU(inplace=True)
      (28): Conv2d(512, 512, kernel_size=(3, 3), stride=(1, 1), padding=(1, 1))
      (29): ReLU(inplace=True)
    )
  )
  (rpn): RPN(
    (conv): Conv2d(512, 512, kernel_size=(3, 3), stride=(1, 1), padding=(1, 1))
    (classifier): Conv2d(512, 18, kernel_size=(1, 1), stride=(1, 1))
    (regressor): Conv2d(512, 36, kernel_size=(1, 1), stride=(1, 1))
  )
  (rcnn): RCNN(
    (fc1): Linear(in_features=25088, out_features=4096, bias=True)
    (fc2): Linear(in_features=4096, out_features=4096, bias=True)
    (classifier): Linear(in_features=4096, out_features=21, bias=True)
    (regressor): Linear(in_features=4096, out_features=84, bias=True)
  )
)	[INFO]
191115_144459_Fri: Start a new round of training, start with epoch 1	[INFO]
191115_144606_Fri: Initialized faster rcnn in FasterRCNNTrain	[INFO]
191115_144606_Fri: FasterRCNNModule(
  (roi_pool): ROIPooling(
    (adaptive_pool): AdaptiveMaxPool2d(output_size=(7, 7))
  )
  (backbone): VGGBackbone(
    (backbone): Sequential(
      (0): Conv2d(3, 64, kernel_size=(3, 3), stride=(1, 1), padding=(1, 1))
      (1): ReLU(inplace=True)
      (2): Conv2d(64, 64, kernel_size=(3, 3), stride=(1, 1), padding=(1, 1))
      (3): ReLU(inplace=True)
      (4): MaxPool2d(kernel_size=2, stride=2, padding=0, dilation=1, ceil_mode=False)
      (5): Conv2d(64, 128, kernel_size=(3, 3), stride=(1, 1), padding=(1, 1))
      (6): ReLU(inplace=True)
      (7): Conv2d(128, 128, kernel_size=(3, 3), stride=(1, 1), padding=(1, 1))
      (8): ReLU(inplace=True)
      (9): MaxPool2d(kernel_size=2, stride=2, padding=0, dilation=1, ceil_mode=False)
      (10): Conv2d(128, 256, kernel_size=(3, 3), stride=(1, 1), padding=(1, 1))
      (11): ReLU(inplace=True)
      (12): Conv2d(256, 256, kernel_size=(3, 3), stride=(1, 1), padding=(1, 1))
      (13): ReLU(inplace=True)
      (14): Conv2d(256, 256, kernel_size=(3, 3), stride=(1, 1), padding=(1, 1))
      (15): ReLU(inplace=True)
      (16): MaxPool2d(kernel_size=2, stride=2, padding=0, dilation=1, ceil_mode=False)
      (17): Conv2d(256, 512, kernel_size=(3, 3), stride=(1, 1), padding=(1, 1))
      (18): ReLU(inplace=True)
      (19): Conv2d(512, 512, kernel_size=(3, 3), stride=(1, 1), padding=(1, 1))
      (20): ReLU(inplace=True)
      (21): Conv2d(512, 512, kernel_size=(3, 3), stride=(1, 1), padding=(1, 1))
      (22): ReLU(inplace=True)
      (23): MaxPool2d(kernel_size=2, stride=2, padding=0, dilation=1, ceil_mode=False)
      (24): Conv2d(512, 512, kernel_size=(3, 3), stride=(1, 1), padding=(1, 1))
      (25): ReLU(inplace=True)
      (26): Conv2d(512, 512, kernel_size=(3, 3), stride=(1, 1), padding=(1, 1))
      (27): ReLU(inplace=True)
      (28): Conv2d(512, 512, kernel_size=(3, 3), stride=(1, 1), padding=(1, 1))
      (29): ReLU(inplace=True)
    )
  )
  (rpn): RPN(
    (conv): Conv2d(512, 512, kernel_size=(3, 3), stride=(1, 1), padding=(1, 1))
    (classifier): Conv2d(512, 18, kernel_size=(1, 1), stride=(1, 1))
    (regressor): Conv2d(512, 36, kernel_size=(1, 1), stride=(1, 1))
  )
  (rcnn): RCNN(
    (fc1): Linear(in_features=25088, out_features=4096, bias=True)
    (fc2): Linear(in_features=4096, out_features=4096, bias=True)
    (classifier): Linear(in_features=4096, out_features=21, bias=True)
    (regressor): Linear(in_features=4096, out_features=84, bias=True)
  )
)	[INFO]
191115_144606_Fri: Start a new round of training, start with epoch 1	[INFO]
191115_144627_Fri: Initialized faster rcnn in FasterRCNNTrain	[INFO]
191115_144627_Fri: FasterRCNNModule(
  (roi_pool): ROIPooling(
    (adaptive_pool): AdaptiveMaxPool2d(output_size=(7, 7))
  )
  (backbone): VGGBackbone(
    (backbone): Sequential(
      (0): Conv2d(3, 64, kernel_size=(3, 3), stride=(1, 1), padding=(1, 1))
      (1): ReLU(inplace=True)
      (2): Conv2d(64, 64, kernel_size=(3, 3), stride=(1, 1), padding=(1, 1))
      (3): ReLU(inplace=True)
      (4): MaxPool2d(kernel_size=2, stride=2, padding=0, dilation=1, ceil_mode=False)
      (5): Conv2d(64, 128, kernel_size=(3, 3), stride=(1, 1), padding=(1, 1))
      (6): ReLU(inplace=True)
      (7): Conv2d(128, 128, kernel_size=(3, 3), stride=(1, 1), padding=(1, 1))
      (8): ReLU(inplace=True)
      (9): MaxPool2d(kernel_size=2, stride=2, padding=0, dilation=1, ceil_mode=False)
      (10): Conv2d(128, 256, kernel_size=(3, 3), stride=(1, 1), padding=(1, 1))
      (11): ReLU(inplace=True)
      (12): Conv2d(256, 256, kernel_size=(3, 3), stride=(1, 1), padding=(1, 1))
      (13): ReLU(inplace=True)
      (14): Conv2d(256, 256, kernel_size=(3, 3), stride=(1, 1), padding=(1, 1))
      (15): ReLU(inplace=True)
      (16): MaxPool2d(kernel_size=2, stride=2, padding=0, dilation=1, ceil_mode=False)
      (17): Conv2d(256, 512, kernel_size=(3, 3), stride=(1, 1), padding=(1, 1))
      (18): ReLU(inplace=True)
      (19): Conv2d(512, 512, kernel_size=(3, 3), stride=(1, 1), padding=(1, 1))
      (20): ReLU(inplace=True)
      (21): Conv2d(512, 512, kernel_size=(3, 3), stride=(1, 1), padding=(1, 1))
      (22): ReLU(inplace=True)
      (23): MaxPool2d(kernel_size=2, stride=2, padding=0, dilation=1, ceil_mode=False)
      (24): Conv2d(512, 512, kernel_size=(3, 3), stride=(1, 1), padding=(1, 1))
      (25): ReLU(inplace=True)
      (26): Conv2d(512, 512, kernel_size=(3, 3), stride=(1, 1), padding=(1, 1))
      (27): ReLU(inplace=True)
      (28): Conv2d(512, 512, kernel_size=(3, 3), stride=(1, 1), padding=(1, 1))
      (29): ReLU(inplace=True)
    )
  )
  (rpn): RPN(
    (conv): Conv2d(512, 512, kernel_size=(3, 3), stride=(1, 1), padding=(1, 1))
    (classifier): Conv2d(512, 18, kernel_size=(1, 1), stride=(1, 1))
    (regressor): Conv2d(512, 36, kernel_size=(1, 1), stride=(1, 1))
  )
  (rcnn): RCNN(
    (fc1): Linear(in_features=25088, out_features=4096, bias=True)
    (fc2): Linear(in_features=4096, out_features=4096, bias=True)
    (classifier): Linear(in_features=4096, out_features=21, bias=True)
    (regressor): Linear(in_features=4096, out_features=84, bias=True)
  )
)	[INFO]
191115_144627_Fri: Start a new round of training, start with epoch 1	[INFO]
191115_144627_Fri: Start to train epoch: 1.	[INFO]
191115_144627_Fri: At epoch 1, iteration 0.	[INFO]
191115_144627_Fri: Image info:	[DEBUG]
191115_144635_Fri: Traceback:	[ERROR]
191115_144635_Fri: Traceback (most recent call last):
  File "/home/server2/4T/liyiqing/projects/pytorch-faster-rcnn/test/../lib/faster_rcnn.py", line 327, in train
    combloss = rpn_loss + self.loss_lambda * rcnnloss
TypeError: add(): argument 'other' (position 1) must be Tensor, not RPNLoss
	[ERROR]
191115_144654_Fri: Initialized faster rcnn in FasterRCNNTrain	[INFO]
191115_144654_Fri: FasterRCNNModule(
  (roi_pool): ROIPooling(
    (adaptive_pool): AdaptiveMaxPool2d(output_size=(7, 7))
  )
  (backbone): VGGBackbone(
    (backbone): Sequential(
      (0): Conv2d(3, 64, kernel_size=(3, 3), stride=(1, 1), padding=(1, 1))
      (1): ReLU(inplace=True)
      (2): Conv2d(64, 64, kernel_size=(3, 3), stride=(1, 1), padding=(1, 1))
      (3): ReLU(inplace=True)
      (4): MaxPool2d(kernel_size=2, stride=2, padding=0, dilation=1, ceil_mode=False)
      (5): Conv2d(64, 128, kernel_size=(3, 3), stride=(1, 1), padding=(1, 1))
      (6): ReLU(inplace=True)
      (7): Conv2d(128, 128, kernel_size=(3, 3), stride=(1, 1), padding=(1, 1))
      (8): ReLU(inplace=True)
      (9): MaxPool2d(kernel_size=2, stride=2, padding=0, dilation=1, ceil_mode=False)
      (10): Conv2d(128, 256, kernel_size=(3, 3), stride=(1, 1), padding=(1, 1))
      (11): ReLU(inplace=True)
      (12): Conv2d(256, 256, kernel_size=(3, 3), stride=(1, 1), padding=(1, 1))
      (13): ReLU(inplace=True)
      (14): Conv2d(256, 256, kernel_size=(3, 3), stride=(1, 1), padding=(1, 1))
      (15): ReLU(inplace=True)
      (16): MaxPool2d(kernel_size=2, stride=2, padding=0, dilation=1, ceil_mode=False)
      (17): Conv2d(256, 512, kernel_size=(3, 3), stride=(1, 1), padding=(1, 1))
      (18): ReLU(inplace=True)
      (19): Conv2d(512, 512, kernel_size=(3, 3), stride=(1, 1), padding=(1, 1))
      (20): ReLU(inplace=True)
      (21): Conv2d(512, 512, kernel_size=(3, 3), stride=(1, 1), padding=(1, 1))
      (22): ReLU(inplace=True)
      (23): MaxPool2d(kernel_size=2, stride=2, padding=0, dilation=1, ceil_mode=False)
      (24): Conv2d(512, 512, kernel_size=(3, 3), stride=(1, 1), padding=(1, 1))
      (25): ReLU(inplace=True)
      (26): Conv2d(512, 512, kernel_size=(3, 3), stride=(1, 1), padding=(1, 1))
      (27): ReLU(inplace=True)
      (28): Conv2d(512, 512, kernel_size=(3, 3), stride=(1, 1), padding=(1, 1))
      (29): ReLU(inplace=True)
    )
  )
  (rpn): RPN(
    (conv): Conv2d(512, 512, kernel_size=(3, 3), stride=(1, 1), padding=(1, 1))
    (classifier): Conv2d(512, 18, kernel_size=(1, 1), stride=(1, 1))
    (regressor): Conv2d(512, 36, kernel_size=(1, 1), stride=(1, 1))
  )
  (rcnn): RCNN(
    (fc1): Linear(in_features=25088, out_features=4096, bias=True)
    (fc2): Linear(in_features=4096, out_features=4096, bias=True)
    (classifier): Linear(in_features=4096, out_features=21, bias=True)
    (regressor): Linear(in_features=4096, out_features=84, bias=True)
  )
)	[INFO]
191115_144654_Fri: Start a new round of training, start with epoch 1	[INFO]
191115_144654_Fri: Start to train epoch: 1.	[INFO]
191115_144654_Fri: At epoch 1, iteration 0.	[INFO]
191115_144654_Fri: Image info:	[DEBUG]
191115_144701_Fri: Traceback:	[ERROR]
191115_144701_Fri: Traceback (most recent call last):
  File "/home/server2/4T/liyiqing/projects/pytorch-faster-rcnn/test/../lib/faster_rcnn.py", line 327, in train
    combloss = rpn_loss + self.loss_lambda * rcnnloss
TypeError: add(): argument 'other' (position 1) must be Tensor, not RPNLoss
	[ERROR]
191115_144702_Fri: Encounter an error at epoch 1, iter 0, saved current model to /home/server2/4T/liyiqing/projects/pytorch-faster-rcnn/work_dirs/error_epoch{}_iter().pth.	[ERROR]
191115_144707_Fri: Initialized faster rcnn in FasterRCNNTrain	[INFO]
191115_144707_Fri: FasterRCNNModule(
  (roi_pool): ROIPooling(
    (adaptive_pool): AdaptiveMaxPool2d(output_size=(7, 7))
  )
  (backbone): VGGBackbone(
    (backbone): Sequential(
      (0): Conv2d(3, 64, kernel_size=(3, 3), stride=(1, 1), padding=(1, 1))
      (1): ReLU(inplace=True)
      (2): Conv2d(64, 64, kernel_size=(3, 3), stride=(1, 1), padding=(1, 1))
      (3): ReLU(inplace=True)
      (4): MaxPool2d(kernel_size=2, stride=2, padding=0, dilation=1, ceil_mode=False)
      (5): Conv2d(64, 128, kernel_size=(3, 3), stride=(1, 1), padding=(1, 1))
      (6): ReLU(inplace=True)
      (7): Conv2d(128, 128, kernel_size=(3, 3), stride=(1, 1), padding=(1, 1))
      (8): ReLU(inplace=True)
      (9): MaxPool2d(kernel_size=2, stride=2, padding=0, dilation=1, ceil_mode=False)
      (10): Conv2d(128, 256, kernel_size=(3, 3), stride=(1, 1), padding=(1, 1))
      (11): ReLU(inplace=True)
      (12): Conv2d(256, 256, kernel_size=(3, 3), stride=(1, 1), padding=(1, 1))
      (13): ReLU(inplace=True)
      (14): Conv2d(256, 256, kernel_size=(3, 3), stride=(1, 1), padding=(1, 1))
      (15): ReLU(inplace=True)
      (16): MaxPool2d(kernel_size=2, stride=2, padding=0, dilation=1, ceil_mode=False)
      (17): Conv2d(256, 512, kernel_size=(3, 3), stride=(1, 1), padding=(1, 1))
      (18): ReLU(inplace=True)
      (19): Conv2d(512, 512, kernel_size=(3, 3), stride=(1, 1), padding=(1, 1))
      (20): ReLU(inplace=True)
      (21): Conv2d(512, 512, kernel_size=(3, 3), stride=(1, 1), padding=(1, 1))
      (22): ReLU(inplace=True)
      (23): MaxPool2d(kernel_size=2, stride=2, padding=0, dilation=1, ceil_mode=False)
      (24): Conv2d(512, 512, kernel_size=(3, 3), stride=(1, 1), padding=(1, 1))
      (25): ReLU(inplace=True)
      (26): Conv2d(512, 512, kernel_size=(3, 3), stride=(1, 1), padding=(1, 1))
      (27): ReLU(inplace=True)
      (28): Conv2d(512, 512, kernel_size=(3, 3), stride=(1, 1), padding=(1, 1))
      (29): ReLU(inplace=True)
    )
  )
  (rpn): RPN(
    (conv): Conv2d(512, 512, kernel_size=(3, 3), stride=(1, 1), padding=(1, 1))
    (classifier): Conv2d(512, 18, kernel_size=(1, 1), stride=(1, 1))
    (regressor): Conv2d(512, 36, kernel_size=(1, 1), stride=(1, 1))
  )
  (rcnn): RCNN(
    (fc1): Linear(in_features=25088, out_features=4096, bias=True)
    (fc2): Linear(in_features=4096, out_features=4096, bias=True)
    (classifier): Linear(in_features=4096, out_features=21, bias=True)
    (regressor): Linear(in_features=4096, out_features=84, bias=True)
  )
)	[INFO]
191115_144707_Fri: Start a new round of training, start with epoch 1	[INFO]
191115_144707_Fri: Start to train epoch: 1.	[INFO]
191115_144707_Fri: At epoch 1, iteration 0.	[INFO]
191115_144707_Fri: Image info:	[DEBUG]
191115_144714_Fri: Traceback:	[ERROR]
191115_144714_Fri: Traceback (most recent call last):
  File "/home/server2/4T/liyiqing/projects/pytorch-faster-rcnn/test/../lib/faster_rcnn.py", line 327, in train
…
